CS303_AI/Project/project3/classifier.pth (torch, 169111 bytes, 6 tensors)

linear.0.weight f4 [128, 256]
00000000: 955c 273d d376 22bc b0f4 3fbd 2fee 2cbd
00000010: cc17 dbbc ced1 5c3d 59f1 1fbd 35f5 24bd
00000020: 88c3 75bd 374c 75bd 029b 18bd 2020 91bd
00000030: 47f2 8ebd 7d64 9b3d 57a7 733c 3f79 17bd
00000040: 5515 d93c ca31 2dbc c40c 9f3d 093b d1bc
00000050: 1d3e 013d 1a8e ca3c ce31 3bbc 3edd 593d
00000060: 8242 a53d 4f47 9d3c de61 eabc 3d6a e23c
00000070: 0be0 0fbd ca15 a1bc b95c cabb 462d 75bc
00000080: 1029 963d e83e 26bd 2772 f1bc a3fc 1a3d
00000090: fc32 4abd 7072 443b c36f 363a c4a8 1b3d
000000a0: d582 aebc 0127 813d 3531 7ebd 5a3f 10bd
000000b0: a703 473d d573 af3c 8733 81bd 5f3d f93c
000000c0: d9c8 4a3d 8007 753d deeb 203d 5917 4f3d
000000d0: a3a2 4e3d 4704 96bd 01f7 d7bc c75e 2d3d
000000e0: e945 643d 22bd 2fbd 8940 743c 3069 893c
000000f0: 0adc febc 4eed 393d ce25 6fbd fefa 3dbc
00000100: 5604 2b3d 1cb0 623b b7e2 4e3c 7969 dd3c
00000110: 982b 32bd df33 06bd 08f7 abbb fda0 86bd
00000120: 4daf fe3b c16f db3c f3e2 d03a a197 c63d
00000130: 0fdc 823b 7b41 88bd 4553 633d fcc3 273d
00000140: 1719 053c ee63 803d 288f 60bd 0c9c 1fbd
00000150: 38a2 73bc 8214 b03d 578a 0c3d 0f94 403d
00000160: 03a5 383c 457e 4abd 854c b8bc 8e18 1abd
00000170: 0947 eb3b 998b 4ebb f6a8 403d 80fe 8bbc
00000180: 6db8 e8bc c432 19bd f78b 40bd 84e5 08bd
00000190: 318f c5bc 4e3b 533d b545 12bd 7df9 8cbd
000001a0: e48b a7bc bc9d 3d3d c247 403d ff6b 9e3c
000001b0: c38f cfbc 66f9 57bd d87e 123d 4722 0abd
000001c0: 1767 8ebd 3c24 2dbc 2c73 bd3c df1b a73c
000001d0: e246 9c3c 6125 d2bc 37bd a33c 9367 c83c
000001e0: 6be4 423d 8b40 d1bc 2973 8ebc 5527 463d
000001f0: 6f63 19b9 038c 90bc 8339 1dbd 0bf9 dbbb
00000200: 5d69 fcbc 4b4e 2d3d c394 27bd d762 cfbb
00000210: ad3d 95bc 9ef6 65bd 3601 bb3c a459 903c
00000220: 9a55 f8bc c0da 0f3d 40c1 69bc 7081 803c
00000230: 7f9b 633d e075 03bd ec82 6c3d d958 e0bc
00000240: 21b4 14bd 2251 463d 0a75 4b3d 328c 07bc
00000250: 2f91 0c3d 3861 3a3d 79dc ce3c 6cfc f7bc
00000260: 0e76 0bbd a5fe 07bd 914d 443c bf25 1cbd
00000270: 413a 6cbd d464 a8bc a99c 2dbd a756 b4bc
00000280: 2b42 ddbc b7be 21bd 40d8 263d d4cf 4c3d
00000290: 7371 b33d 3a7f 8dbd 1c8f f8bc f8fc 14bc
000002a0: 85f2 773d 3681 1bbd d278 da3b ee6b 5238
000002b0: 7ea5 173d 472f c2bc 948c a2bc 0330 1e3d
000002c0: c4aa 713d 6f57 ebbc 268d 17bb 5571 7cbc
000002d0: a87e 7d3c a28f a9bb 929c 403b 70a0 923d
000002e0: 9a23 133d ab0d 173a 8a06 843c ae8d 413c
000002f0: 22c0 743d 2fc2 0a3d a6ee 56bc d8b7 7c3c
00000300: 9a80 8fbc ff6e d83c dd6f b9bc 30bd 093d
00000310: 35a0 7cbd ccac 3abd 6e31 38bd 9be2 3ebd
00000320: cfdc 443c 9be0 8d3d 51c6 af3b c39e 56bb
00000330: 5d02 533d 32da 73bd d485 873c f12b 0cbd
00000340: 5b47 1bbb be12 80bd 64f3 87bd 2c0b 4f3d
00000350: d2ac 85bd 027d 85bb ade7 043d b8e3 21bc
00000360: 4d59 cebc 3fef 8cbc abef 28bd 6f97 3d3c
00000370: 2bfd 193d d79e 31bc 3919 5ab8 6dd6 103d
00000380: 5c39 343c 7ca0 d83c 2cd1 f5bc 1674 9ebd
00000390: e8bd 663c e779 ae3c 5e02 a23b dd1f d13c
000003a0: 1e3c 5e3d 54cd 453d 776a aebb 30fa e63c
000003b0: 7ed4 d7bb 330c 7abc 4921 71bd 4e40 cbbc
000003c0: 5fb3 f2bc fd7f 83bd 5397 003d e5c4 39bd
000003d0: 66b1 fdbc a45b e83c 3bbd 4dbd d15d b3bc
000003e0: 733a 3abb 7c3d 0abc c75f 84bd 4fbd 7b3b
000003f0: 527a 95bd 987c d4bc 208b c23b ce28 aabc
0.040859777 -0.009916025 -0.04686421 -0.042219337 -0.026744746 0.053911023 -0.039048526 -0.04027291
-0.060000926 -0.059887137 -0.037257202 -0.070862055 -0.069798045 0.07587526 0.01487144 -0.036980864
0.02649943 -0.010570953 0.07766107 -0.025540845 0.031553376 0.024725962 -0.011425449 0.05318951
0.08069326 0.019199042 -0.02861112 0.027638549 -0.035125773 -0.01966371 -0.006175604 -0.014964407
0.07332051 -0.040587336 -0.029473377 0.03783859 -0.04936503 0.0029975437 0.0006959403 0.038002744
-0.02130262 0.063062675 -0.062058646 -0.035216667 0.048587468 0.021417538 -0.06308656 0.030424772
0.04950795 0.059821606 0.03928744 0.050559375 0.05044807 -0.073250346 -0.026362898 0.042326715
0.055730734 -0.04290498 0.0149079645 0.01677379 -0.031110782 0.045392327 -0.058385663 -0.011595486
0.041752182 0.0034589833 0.012627295 0.027027832 -0.043498605 -0.032764312 -0.0052479543 -0.06573675
0.0077723623 0.026786687 0.0015936777 0.0969689 0.003993518 -0.066531144 0.055499334 0.04095839
0.008123658 0.0626906 -0.054824024 -0.038967177 -0.014870219 0.085976616 0.03431162 0.0470162
0.011269811 -0.049436826 -0.022497425 -0.037621073 0.007180099 -0.0031516312 0.047036134 -0.017089128
-0.028408254 -0.03740193 -0.04700848 -0.03342201 -0.02411613 0.05157023 -0.03571101 -0.068835236
-0.020452447 0.046293005 0.046943434 0.019338606 -0.025337106 -0.05272808 0.0357655 -0.033724096
-0.069532566 -0.010567721 0.023126207 0.020399032 0.019076768 -0.02565259 0.019987686 0.02446345
0.047581118 -0.025543472 -0.017388897 0.048377354 -0.00014628259 -0.017644888 -0.038384926 -0.006713038
-0.03081196 0.042310994 -0.040913355 -0.0063289213 -0.018217886 -0.056143396 0.022827726 0.017620869
-0.030314256 0.035120726 -0.014267266 0.01568672 0.055568215 -0.032094836 0.057742044 -0.027386116
-0.036304597 0.048417218 0.049672164 -0.008273171 0.034318145 0.04550287 0.025251614 -0.030271731
-0.034048133 -0.033201832 0.011981384 -0.038121935 -0.057672743 -0.020555891 -0.04238573 -0.022013975
-0.02700909 -0.03948852 0.040733576 0.050002888 0.08761873 -0.06909032 -0.030341677 -0.009093516
0.06053402 -0.037965022 0.006667235 5.016842e-05 0.03702306 -0.023704184 -0.019842423 0.038620006
0.059000745 -0.028728215 -0.0023124903 -0.01540788 0.015472092 -0.005174593 0.0029390198 0.07159507
0.035922624 0.00057622296 0.0161164 0.011813564 0.059753545 0.033876594 -0.013118422 0.015424691
-0.017517377 0.026420115 -0.022636348 0.03362769 -0.061676223 -0.04557495 -0.044969015 -0.046602827
0.0120155355 0.06927606 0.0053642173 -0.0032748438 0.051515926 -0.05953426 0.016543306 -0.034221593
-0.0023693654 -0.06253575 -0.0663822 0.050547764 -0.065271035 -0.00407374 0.032447506 -0.009880953
-0.025189066 -0.017203925 -0.04124419 0.011571749 0.037594955 -0.010841093 -5.199874e-05 0.035360742
0.011000004 0.026443712 -0.030006967 -0.077369854 0.014083363 0.021298362 0.00494413 0.025527889
0.05425655 0.04829152 -0.00532275 0.02819547 -0.0065866103 -0.015261698 -0.058869634 -0.024810936
-0.029626546 -0.06420896 0.031394314 -0.04535379 -0.03096838 0.02836401 -0.050229292 -0.021895321
-0.0028416186 -0.008437511 -0.064635806 0.0038412397 -0.072987214 -0.025938317 0.005936995 -0.02077141

linear.0.bias f4 [128]
00000000: 8c40 ff3c 5dbb de3c eb65 1bbd b713 153d
00000010: d4b9 7abd b1f3 91bc dfb9 e23c 6a67 d33c
00000020: dc8d c1bc 2729 6eb9 2965 67bc f9dc 333d
00000030: 8659 0a3d 919a b4ba b1bb 583d e00b 25bc
00000040: 90f1 eeba e21e e9bc 3daa 233d a094 3cbd
00000050: b0d0 55ba b682 a3bc 9cba 46bb bdf1 3e3d
00000060: 1c23 a5bc 2bf3 5fbd f334 31bd 2a2a 5cbd
00000070: 15c3 51bd 3ea9 f0bc 35e4 433c 1957 8abc
00000080: 2c32 2bbc 4ae5 6bbd e00f e13c 2536 e93c
00000090: f77e 3dbd fddb efbc b708 643d 1846 79bd
000000a0: f362 81bb 0258 9e3c 2bbe f03c 6e61 82bd
000000b0: 15d7 6fbd e190 6ebd fd63 4ebd e613 773d
000000c0: 22af ecbc f538 64bd 7725 9abc c651 0e3d
000000d0: cac5 23bd 28b0 1c3d 7b9c 41bd 5571 18bd
000000e0: 2ab6 da3c 7096 17bb 2b80 573d c06a 553c
000000f0: 678d f23b c6c8 fbbc 63d1 983b eff1 443d
00000100: f9af 283d e88f e4bc ed0c 3b3d 950d 613c
00000110: 0110 663c 57ab 9c3a 3a23 58bd 5f64 4bbd
00000120: 4bde b6bc 90b7 403d 9ed7 2fbc 9740 35bd
00000130: b0d3 c7bc efd9 4ebd 8516 443d 6539 29bb
00000140: 4225 8ebc b97e 41bd 96c9 523d 2984 5c3d
00000150: 10af 343d 52d1 413d c20b 073b 6393 b1bc
00000160: c0f2 acbc 941c 243b 1484 fdbc 983c 083d
00000170: bc2b e93c 63c5 5b3d af20 463c 5147 4fbd
00000180: 6e7a 393d a2de c4bc 76e0 353d 7a23 dc3c
00000190: 3c24 f63c 4268 263d 0f1c 3f3d 5691 013d
000001a0: 2b34 1e3d e9b1 6c3d 2fa0 083d 1d6e dfbc
000001b0: 14f5 d2bc 4140 5c3d 1289 0c3c 98e7 ffbc
000001c0: 9994 163d 1712 42bd 3cbd 39bd 54d7 253a
000001d0: d84c 113d 4976 a3bc 8788 7f3d db68 483d
000001e0: 063a e9ba 30c3 2abc 1b40 60bd 119d 34bd
000001f0: 6212 27bd b9d8 40bd 06b2 bbbc 65fc 6e3d
0.031158708 0.027188951 -0.037938993 0.036395755 -0.061212376 -0.017816396 0.02767652 0.025806148
-0.023627214 -0.00022712779 -0.01412324 0.043911908 0.033776782 -0.0013778975 0.05291337 -0.010073632
-0.001822995 -0.028457109 0.039957274 -0.046040177 -0.0008156402 -0.019959789 -0.003032363 0.04661726
-0.020158343 -0.054675262 -0.043263387 -0.05375115 -0.051211435 -0.029377576 0.011956264 -0.016887235
-0.010448974 -0.057591714 0.02747339 0.028468201 -0.04626366 -0.029279703 0.055672374 -0.060857862
-0.0039485632 0.019329075 0.029387554 -0.063662395 -0.058554728 -0.058243636 -0.050388325 0.06032171
-0.028892104 -0.05571838 -0.018816693 0.034745954 -0.03998355 0.038253933 -0.047268372 -0.037217457
0.02669819 -0.002313044 0.052612465 0.013025939 0.0074021104 -0.030735385 0.0046636327 0.04808229
0.041183446 -0.027900651 0.045666624 0.013736148 0.014041902 0.0011952919 -0.05276797 -0.04965627
-0.022322794 0.04705006 -0.0107325595 -0.04425105 -0.024392933 -0.050500806 0.04787304 -0.0025821563
-0.01735175 -0.047239993 0.05146178 0.053836975 0.044112265 0.047318764 0.0020606373 -0.021676725
-0.021111846 0.0025041448 -0.030946769 0.03326091 0.028463237 0.05365504 0.012092753 -0.050605122
0.045282774 -0.02403194 0.044403516 0.026872385 0.030046575 0.04062677 0.046657618 0.031632744
0.03862397 0.057786856 0.033355888 -0.027274186 -0.025751628 0.053772215 0.008577602 -0.031238362
0.036762808 -0.047380533 -0.045346484 0.0006326337 0.035473675 -0.019953864 0.062386062 0.048928123
-0.0017793782 -0.010422513 -0.054748636 -0.044095103 -0.040789016 -0.047081683 -0.022912037 0.05834617

linear.2.weight f4 [64, 128]
00000000: 4b32 a43d 62ca dfbc 4c81 86bc 2d52 b0bd
00000010: ca62 5cbd ed9c a2bc 3fe8 e23d 07dd aa3b
00000020: 661b acbd 6702 b1bd bf7b 243d 50bf 0dbd
00000030: 27cb c13d d92a a7bd c8fb 3d3d 8917 163d
00000040: 0930 8d3d 27f0 d13c 3971 73bc e021 173d
00000050: 2833 b7bb b83a 883d b017 9f3d dac8 5dbd
00000060: 5799 1a3d 0e5e 563d bdde 1b3d 6e7b b73d
00000070: 948f 083c 4c1f 803d 7261 8e3c 88c4 8a3d
00000080: f68a a13d 1016 b53d 4fb2 0e3d c44b 64bd
00000090: ddcb 37bd 0c90 a03d b438 043c 9d0e 85bd
000000a0: 4d69 e0bc 517a b63d e5ee 37bd 76da e93c
000000b0: 1c00 593d 2b8c 14bd e177 c4ba 0438 5fbb
000000c0: 4451 a7bc 00f3 a6bc 74f6 203d c001 013d
000000d0: a4ec b5bd 5eab 2cbd b00d 26bd 1557 903d
000000e0: f877 8abd 1377 a0bc 9179 71bd b2ed 803d
000000f0: 9c4f 793c 3dc5 69bc c419 86bd 84e7 90bd
00000100: 639c 7abc 4c93 cabb de13 153b 4cc9 953d
00000110: cb7d 853d b289 2d3c 7235 823c df92 b3bd
00000120: cee1 6dbd 4ae8 1c3d 4927 acbd 977a fbbc
00000130: 98ec 673d d5d9 31bd ec9f 433d d615 7e3c
00000140: 579c 1dbd ee6a 01bd 1766 8ebd 48cb 0d3c
00000150: 4829 433d e436 d53d db02 0dbc 8f99 8ebd
00000160: ff10 083d 909e 98bd 0b54 d0bd 59cf d2bc
00000170: 028c af3d 09da a43d 9709 123d 65ea 82bd
00000180: f633 de3d e057 073c 6e9f 5dbd 899f b73c
00000190: 183a 443c 23cc b23d 0a16 afbd 5d27 9a3d
000001a0: cde6 bcbd bf85 b63d 6cb6 1d3c 5b54 9e3c
000001b0: 0eb2 a3bd e69b 233c 93be ffbb 2ec9 7ebd
000001c0: 9156 8dbd 3989 41bd 3a19 4d3c 0109 32bd
000001d0: d991 e4bc e7e4 b33c 3fe7 bfbd c3f6 a2bd
000001e0: dc55 89bd e975 d6bc 66b5 b73b 26f3 873d
000001f0: dd9a 913d 581d b43c 4ae8 4fbd e703 403d
00000200: 56ca 57bd 99f1 babc 1030 9a3d 8a3d d5bc
00000210: 6065 81bc a299 653d 0e31 073d a456 523d
00000220: 6ad2 8cbd 7c6a 67bd 90dd f73c aa82 cdbd
00000230: 6732 013d 7c20 0ebb c4fe 7e3d 53b8 0ebd
00000240: 4f45 a93d d8fc 77bd 0b05 7a3d 68f0 a4bd
00000250: a41c 46bd c3f6 a73d 5a00 f13b bebf 633d
00000260: 636d 94bd f485 5e3d c398 36bd ae47 dfbd
00000270: 1353 0b3d fc89 563b 52bf 363d 3cd2 1abd
00000280: c3ab 67bc bd0f cf3d 9412 e03a de97 06bd
00000290: 0508 2fbd 413f 0dbd f4f2 56bc 4fc1 6b3d
000002a0: b2bb b0bc 0a04 a23d ed39 22bd 3ea9 98bd
000002b0: 6335 13bc 75e3 0d3d 7595 423d 5d52 f4bc
000002c0: a9c6 c43c 438e 943d 8b41 7f3d 0faf 67bc
000002d0: 46a7 8d3d de6e aabc c19a 7f3d 98a1 453d
000002e0: de8a 53bd 5dc0 c9bc df26 c33c 3bb0 55bd
000002f0: 066b 27bd 1330 903d dfb0 a7bd ba29 a0bd
00000300: 3457 343d c077 afbc 55de 343d 55f0 1ebd
00000310: 74ab b0bc 2d70 603d 6928 01bd ff66 153c
00000320: 617b d33c 36a8 60bd ad15 70bd ef1f ddbd
00000330: 3bb3 1abd cf0f 19bd 48de 9d3c cc37 b73d
00000340: 4d96 713d e87d 2b3d 3c26 2c3d c1ae 34bc
00000350: c188 57bd 2d19 fb3c a186 303d b0d7 dbbc
00000360: 8473 ad3d c674 053d 16a7 463d 4501 17bc
00000370: 6b41 7a3c 68c6 a03d 4677 983d 3541 48bd
00000380: beb0 1ebd 4e9c 60bd aa2f d53c de4d 0ebd
00000390: 633d 1ebd 58e0 fc3c b551 ab3d 4ebf 493d
000003a0: 0e08 873d b2bd 78bd 6cfd 55bd 2034 543c
000003b0: f96f 463d bdcc 47bd 6b2b 6e3d 3e7c 3ebd
000003c0: 9edd 903d 5879 b63d 7f70 143c c88f 03bd
000003d0: 8f7a 80bd edf8 edba 565f 2cbb 8ac9 273c
000003e0: 2a15 cf3d 37ba c73c 357c babd d5f8 b4bd
000003f0: db22 62bd 1f37 41bd 2a39 3ebd 6ca1 ffbb
0.08017405 -0.027318183 -0.016419075 -0.08609424 -0.05380515 -0.019850219 0.11079454 0.005214337
-0.08403663 -0.08643036 0.040157076 -0.034606278 0.09462576 -0.081624694 0.046382695 0.03664354
0.068939276 0.025627209 -0.014858537 0.03689754 -0.005590815 0.06651825 0.0776819 -0.054146625
0.037743893 0.05233579 0.038054217 0.08959089 0.008335013 0.062559694 0.01738045 0.067757666
0.07887833 0.08842099 0.034838017 -0.05573632 -0.044872154 0.07839975 0.00807016 -0.06496928
-0.027393961 0.08910049 -0.044905562 0.028546553 0.05297862 -0.036266487 -0.001498934 -0.0034060488
-0.020424493 -0.020379543 0.039297536 0.03149581 -0.08883026 -0.042155616 -0.040540397 0.070478596
-0.067611635 -0.019588029 -0.058953825 0.06295337 0.015216734 -0.014268217 -0.06547883 -0.07075408
-0.015296075 -0.00618211 0.0022747437 0.07313785 0.06518134 0.010591911 0.015894625 -0.08768248
-0.058076672 0.038307466 -0.084059305 -0.030698104 0.056622118 -0.04342063 0.047759935 0.015508136
-0.038479175 -0.031596117 -0.06953066 0.008654423 0.04764679 0.1041086 -0.008606638 -0.06962883
0.033219334 -0.074521184 -0.1017228 -0.025733637 0.08571626 0.080493994 0.035653677 -0.063923635
0.108497545 0.008260697 -0.054107122 0.02241494 0.011976741 0.08730342 -0.085491255 0.07527039
-0.09223709 0.08912229 0.009626012 0.019327333 -0.079929456 0.0099859 -0.0078047006 -0.06220358
-0.06901277 -0.047250006 0.0125182215 -0.043465618 -0.027901577 0.021959735 -0.093702786 -0.07957222
-0.067058295 -0.02617927 0.005606341 0.06638174 0.07109616 0.021986648 -0.050758637 0.04687872
-0.052683197 -0.02282028 0.075286984 -0.02603032 -0.01579541 0.05605472 0.033005767 0.05135216
-0.06876071 -0.056498036 0.030257016 -0.10034688 0.031542208 -0.0021686843 0.062254682 -0.034843754
0.08265173 -0.060543865 0.061039966 -0.08053666 -0.048367158 0.08201363 0.0073547782 0.05560278
-0.07247426 0.054326966 -0.04457928 -0.10902344 0.034014773 0.0032736054 0.04461605 -0.03779815
-0.014140072 0.10110424 0.001709538 -0.032859676 -0.042732257 -0.03448415 -0.013119448 0.0575574
-0.021573875 0.07910927 -0.039606024 -0.074541554 -0.008984896 0.034640748 0.047505815 -0.02982443
0.02402051 0.07253697 0.062318366 -0.014140858 0.069166705 -0.020804819 0.062403444 0.04824981
-0.051646106 -0.024627859 0.023822246 -0.05217002 -0.04087355 0.070404194 -0.08188032 -0.07820459
0.044028476 -0.021419406 0.044157345 -0.038803417 -0.02156613 0.05479448 -0.03153268 0.009118794
0.025815668 -0.05484792 -0.05861442 -0.107971065 -0.037768584 -0.037368592 0.019271031 0.08946189
0.05898123 0.04186812 0.04202865 -0.011027993 -0.052620653 0.030651653 0.043097142 -0.026836246
0.084692985 0.032582067 0.04849919 -0.009216611 0.015274386 0.07850343 0.074446246 -0.04889031
-0.038742773 -0.054836564 0.026023705 -0.03474223 -0.03863276 0.030868694 0.08365194 0.049254708
0.06593333 -0.060727783 -0.052243635 0.012951881 0.04844663 -0.048779238 0.058146875 -0.046505205
0.0707352 0.08909863 0.009060024 -0.032119542 -0.06273376 -0.0018155851 -0.0026301942 0.010240922
0.101114586 0.024380786 -0.09105722 -0.088365234 -0.055209022 -0.04717171 -0.046441235 -0.0078012254

linear.2.bias f4 [64]
00000000: 5e1c adbd eba2 583c 7df9 a3bd 7be5 273c
00000010: 08ac 02bd d65e 583d 74db e0ba ac9d 193d
00000020: a430 ab3d f0e5 a13d 80b0 0d3d f4fe 9bbd
00000030: d907 d03c f3cd 593b 8cfb a9bd 6b18 9a3c
00000040: c790 f93c 1c15 a63d ce81 a13d 5700 ec3c
00000050: ece3 8cbd 8dc5 8c3d 0e22 8f3d fa1b 29bc
00000060: e7c8 c5bc 2e0a a2bd e08b f33c a9a7 99bd
00000070: 5871 98bd 2454 41bd 7475 8bbd 04ac 1b3d
00000080: 7c1c a63d 1b33 493c 892e cebc fa81 a3bd
00000090: 8f1d 1fbd f3eb f43c f40a 9dbd e4f9 473c
000000a0: 3e80 23bd 81ec 333d 425d febc 9c23 a4bd
000000b0: b6ef d3bc 7d72 ecbc 45f8 103c 1e03 003d
000000c0: 736a 883c 674d 54bd 51ac 45bd 5b25 913b
000000d0: d660 22bd d88f afbd 5009 a1bd e90b 83bd
000000e0: 2023 c03d b8d5 153d f4f3 133d 39f8 e13c
000000f0: 6684 2d3d 2ecf d9bb d0c1 e93c 6ec8 1fbd
-0.08452676 0.013222436 -0.080065705 0.0102475835 -0.031902343 0.052824818 -0.0017155246 0.037503883
0.08358887 0.07905185 0.03459215 -0.07616988 0.025394367 0.0033234328 -0.08299932 0.018810472
0.030464543 0.08109495 0.078860864 0.028808756 -0.0687941 0.06873617 0.06988917 -0.010321612
-0.02414365 -0.07912098 0.029729784 -0.07502682 -0.074434936 -0.047199383 -0.06809512 0.038005844
0.08110902 0.012280251 -0.025168674 -0.079837754 -0.03884655 0.029897666 -0.07668105 0.012205575
-0.039917223 0.04392672 -0.031050328 -0.080146044 -0.025871139 -0.028863186 0.008848255 0.031252973
0.016652321 -0.05183163 -0.048260037 0.004429502 -0.03964313 -0.08572358 -0.07863104 -0.06398756
0.093816996 0.03658077 0.036121324 0.027584182 0.042362593 -0.006647012 0.0285348 -0.039009504

linear.4.weight f4 [10, 64]
00000000: b018 8fbd 0a54 b1bb 4721 95bc e829 98bc
00000010: 5de1 283d 98c4 2dbc fb53 f73c 0c87 c6bd
00000020: fdf0 173e 4958 c83d bbca 48bd 3411 0b3e
00000030: 0496 81bd 242f 9a3d 0390 0e3e e1aa 9fbd
00000040: 90ef 25be 0cc7 22bc 5b81 83bc 45ef 4c3d
00000050: 7bb8 c7bd 9431 05bd e845 b7bd 2ccb 173e
00000060: a8e5 b4bc 530d 8d3d d56c 9e3d bc35 a53d
00000070: 9a07 c7bd 2fff e9bd cbbf 36bd 132b b33d
00000080: 1d42 0c3d ae34 0c3d f696 343c 7e4a fe3c
00000090: fa4c 4c3d cf94 c03c b006 153e 5c30 ca3d
000000a0: 2870 063c 45f1 d13c 78fd 5c3e bc7d 0fbe
000000b0: a94d dc3d f572 81bd 8ae1 93bb fa8d 36be
000000c0: acf3 96bc e32a bcbd 7f1b 113e 4ddc 14be
000000d0: b299 34bd dcc0 d93a 8145 07be 6bdd 28bd
000000e0: eafd e0bd e8c6 943d 8cef d83d 82d7 cbbb
000000f0: fc1d 683d fe0b 9d3d 54b9 82bd 6dea 54be
00000100: f487 ebbd 27e1 fdbc 2e39 49be 20be ee3d
00000110: 6343 523d c156 253d 8c8e 763d 374b 18bd
00000120: 5aff 173e fe51 1ebe b5a9 e3bd 19d6 b33d
00000130: 026c 0abd 9922 04be a264 15bd 5cee 573c
00000140: e937 35be 20f4 103e 1017 28bd db52 123d
00000150: 06d7 193e e16c bfbd b89b 873c 1583 a33d
00000160: f968 dd3d 8f19 43be 9d39 8abd 7a9c 96bc
00000170: fdef 093e 5b7f 923d 3f4e ee39 5330 7d3d
00000180: 3066 a3bd dc53 8f3d ee80 0d3c 2db2 92bd
00000190: efde debd a938 183e a37d 82bb 098c e4bd
000001a0: 52eb 40bd 0ec1 b5bc 0534 853d ac4b 663d
000001b0: 23e3 b13c c516 87bc b412 adbd 6692 083e
000001c0: 56c8 c93d 11e8 9b3d bc82 9ebd f0ae 643e
000001d0: efd5 5e3e fd09 10be 8b45 e53d 1aa6 173e
000001e0: 89fd ea3d 51ca 80bc afcc 4bbe 38d9 e43d
000001f0: bb2a 9a3c 31e0 a4bd a6f9 43be 6255 67bd
00000200: b0ad 733d 2234 1c3a 7199 673d 5e64 cd3d
00000210: d8ad 373e f6a9 153e 66d9 debd fcbf d6bd
00000220: f14d 29bd 0659 533e db38 ed3d e605 a0bd
00000230: 3f0b 043e 78d5 0dbe f5c0 703d fb36 a0bd
00000240: 1769 49bd cdf2 d2bd b730 00be 2100 83bd
00000250: 6afc 9abd 3d59 07be ed42 603d 26fc 103d
00000260: 7d5e 7ebd d299 003e 507f f23d 9e63 803c
00000270: dd3d bbbd 7d6f 213d 40cb 87bd 03d0 afbd
00000280: 8cfd 5a3d 70c9 0ebe db2a 09be f150 033e
00000290: 4f90 6d3c b227 213e 96f8 e0bd 4fc2 ffbd
000002a0: 1e87 e9bd 9922 b2bc 3e41 6a3e 297c bf3d
000002b0: c986 f93c 1c4c e13d 7a69 13bd d37f 043e
000002c0: 776d 643e 4668 943d e63f 0b3e 5d57 03bd
000002d0: 6a93 5bbd 2fcc 88bd d0a2 6e3d 4dd2 37be
000002e0: 3334 7b3e fbd8 84bd 509e 14be 42d1 1dbe
000002f0: 1144 b23d ddda 2e3e 5b52 d1bd 599d 3a3d
00000300: ae58 23be fd89 f0bd ff0e f7bc 8492 4a3d
00000310: 819b 083e 85ff 93bc c9b1 053d b0d9 41be
00000320: 98b2 6abd c3ee d93d ed78 cbbd bd7d f1bd
00000330: 259f 7cbd 0af3 ee3c 6995 aebd 3f51 42bd
00000340: abc7 17bd a95f a2bd a85b 54bc 2bb7 8a3c
00000350: 3934 66bd 5bdf df3d 2d7e 05be 0a00 ebba
00000360: 700e a7bc 646b eb3b 0372 50be 7825 e0bd
00000370: dabb dc3d 0dac 58bc a3dd 98bd 09c4 a5bd
00000380: 1025 18be a47f e4bd dbdd 133e 7d95 5f3b
00000390: f3ea 11be 96b6 7c3d 61b1 7fbd 7eae a83d
000003a0: 5a61 b1bd d5f1 44bc aa9c 0ebe f630 8ebb
000003b0: 4866 433e 588f c73d 5d7e 843d 175d 033e
000003c0: 1d16 72bd 9e83 5fbc 88ed 18be 7072 26be
000003d0: 0cdb be3d 61e5 3ebe 3179 d13d 53f4 acbd
000003e0: 99e6 1ebe 0a2a cd3d bfeb f73d faf2 0dbe
000003f0: 74a9 0d3e 950e 9a3d 2078 ff3d 7cf0 563e
-0.06987131 -0.0054116296 -0.018204344 -0.01857467 0.04123055 -0.010605954 0.030191412 -0.09693727
0.14838023 0.09782464 -0.049021464 0.13580781 -0.06327441 0.075285226 0.13922124 -0.077962644
-0.16204667 -0.009935152 -0.016052892 0.050032873 -0.09751984 -0.032517985 -0.089488804 0.14823598
-0.022082165 0.06887307 0.07735602 0.0806689 -0.09718247 -0.114256255 -0.0446165 0.0874845
0.034242738 0.034229927 0.01102232 0.03104138 0.049878098 0.023508457 0.14553332 0.09872505
0.008205451 0.025627742 0.21581066 -0.14012808 0.10757 -0.063207544 -0.0045129703 -0.17827597
-0.018426739 -0.091878675 0.14170645 -0.14537163 -0.044091888 0.0016613263 -0.13210107 -0.041226786
-0.1098593 0.07264501 0.10592565 -0.006220759 0.05666922 0.07668303 -0.06383005 -0.20792551
-0.115005404 -0.03099115 -0.19650719 0.11657357 0.051333796 0.040365938 0.060194537 -0.037181105
0.14843503 -0.15460965 -0.111163534 0.0878107 -0.03379441 -0.12903823 -0.036472924 0.013179388
-0.1769711 0.14155626 -0.04103762 0.03572355 0.15023431 -0.09346939 0.016553745 0.07983986
0.108110376 -0.19052719 -0.0674927 -0.01838516 0.13470455 0.071531974 0.00045453195 0.061813664
-0.07978475 0.06998417 0.008636696 -0.071628906 -0.10882365 0.14865364 -0.003982262 -0.11159522
-0.04709942 -0.022186782 0.065040626 0.05622451 0.021714753 -0.01649035 -0.08450833 0.13337097
0.09852664 0.076126225 -0.07739779 0.22332358 0.21761297 -0.1406631 0.11194905 0.14809456
0.11474139 -0.015721472 -0.199023 0.11174244 0.018819204 -0.080505736 -0.19138202 -0.05647791
0.059491813 0.0005958696 0.056542818 0.10028909 0.1793741 0.14615616 -0.10881309 -0.10485837
-0.041334096 0.20639428 0.1158311 -0.07813625 0.12894915 -0.13850963 0.05877777 -0.07822987
-0.049172487 -0.10300217 -0.12518583 -0.06396509 -0.075676754 -0.13217635 0.054751325 0.035396717
-0.06210183 0.12558678 0.11840689 0.015672501 -0.09142659 0.039412964 -0.06630564 -0.08584597
0.053464457 -0.1394403 -0.13395254 0.12823845 0.014499738 0.15737799 -0.10984914 -0.12488233
-0.11402725 -0.021745013 0.2287645 0.093498535 0.030459778 0.11000845 -0.035989262 0.12939386
0.22307383 0.07246451 0.13598594 -0.032065738 -0.053607382 -0.0667957 0.05826074 -0.17951317
0.24531631 -0.06486698 -0.14513516 -0.15411857 0.08704389 0.17075677 -0.10220786 0.045560215
-0.15951797 -0.11745069 -0.030158518 0.049456134 0.1334057 -0.018066177 0.032640252 -0.18930697
-0.057299227 0.10641243 -0.09935174 -0.11791561 -0.06167521 0.029168624 -0.085245915 -0.047440764
-0.037055653 -0.07928402 -0.012961306 0.016933044 -0.056202147 0.109312735 -0.13036413 -0.0017929089
-0.020392627 0.007184433 -0.20355992 -0.109446466 0.10778017 -0.013224614 -0.07464149 -0.08094031
-0.14857888 -0.11157158 0.144401 0.0034116202 -0.14249782 0.061697565 -0.06242502 0.08236407
-0.086611465 -0.012020548 -0.1392695 -0.0043393327 0.19081986 0.097441375 0.064694144 0.1282848
-0.05910312 -0.01364222 -0.14934361 -0.16254592 0.093191236 -0.18642189 0.102281936 -0.08445039
-0.15517654 0.10017784 0.12105512 -0.1386222 0.13834172 0.075223126 0.12474084 0.20990175

linear.4.bias f4 [10]
00000000: 2f9d 903d 9751 c53d f0d4 083d 1754 323d
00000010: e771 243d ee08 d03c 290e 943d 7cf6 00bd
00000020: cf73 aa3d 58fc fb3c
0.070612304 0.09634703 0.033406198 0.043537226 0.04014769 0.025394883 0.07229263 -0.031485066
0.0832287 0.030759975
